red_rocks_height_net.pth (torch, 797806 bytes, 9 tensors)

net.0.linear.weight f4 [256, 2]
00000000: bc40 263d b4dd 343f 117e 3b40 ea8a fa3f
00000010: d643 4e3f 5488 c83e 9c84 ae3d c136 50be
00000020: 5606 9bbf 1698 0dc0 d43f 6dbf 1357 7b3e
00000030: a5c0 a6bf 1ca7 bebf 6760 04c0 d52a 63c0
00000040: 5b5c ea3f 233e b43f 7358 a7be a20b 1a3e
00000050: 3f14 34be e5e2 0dbf 38ac e83f f7c2 d83f
00000060: 194b 19c0 b13c 22c0 7882 7140 7f26 4740
00000070: 66a4 483e 69b8 76be 2bac 7abf 786a 8cbf
00000080: 547c 68c0 6a5a 69c0 d1e5 8d3e 730e a63e
00000090: e3b3 483f fb53 423f d79f b73f 1687 213f
000000a0: 19c0 4c3f 3179 e23f 7404 ab3f 9d04 7a3f
000000b0: 8178 1dc0 b327 18c0 b1ae 153f 54fb c93e
000000c0: d50b 5d3f f186 1c3f be02 c83e 3857 293f
000000d0: 57d5 21bd 6e5d ebbe e92e ea3e 362e 083e
000000e0: 16a3 1a40 4f61 1140 1c09 933f d414 913f
000000f0: 38e4 12c0 c098 d7bf 512d b5bf 8973 6fbf
00000100: df7f 103f 6102 853f c970 79bf 7b16 eebf
00000110: b006 3d3f e8ce 303e a54f 8f3f c4a9 a63f
00000120: 4f19 8b3e 19b2 413f c7fc 03c0 ca33 ebbf
00000130: 29df 54bf 2bff b0bd bb1c c2bf 5893 87bf
00000140: 6ca7 983e f365 433f 4956 a9bf 7482 62bf
00000150: 790b 3b3c 5fdb b3bf 1a65 2d3e 10a4 37bf
00000160: d9f9 7c40 ba35 5f40 b16e 863f f633 7c3f
00000170: 09ae 6140 c296 6340 dd37 16bf 4bd4 43bf
00000180: bc89 adbf c513 e8bf 1d90 4ac0 ef50 1cc0
00000190: 69b1 b7bf bb4b d0be 55ea 6c40 3084 5440
000001a0: 346e 77bf 797e 3dbf 19e8 183f 314e cc3f
000001b0: 0114 593f b0c0 c6be 17a2 b2bf b51d a5bf
000001c0: adee cebf deb9 0abf 5faa 39c0 7e1c 45c0
000001d0: a07e c53f 93cf fe3f 69f3 9ebf f889 f2bf
000001e0: 6638 b0bf 086d dcbf c7c7 7dbf f18c b2bf
000001f0: 26c7 10c0 02b2 0dc0 0f88 a33f 665f 513f
00000200: aeeb a23f e25c 1940 c9c5 3cc0 c852 20c0
00000210: e11a 5ebe fa1b 203e ed74 c2bf af8a b9bf
00000220: acca 3bc0 e901 09c0 76a9 e23f 7c1e 1540
00000230: 1ad8 1cc0 e940 1fc0 cb94 dbbf 2330 8dbf
00000240: 6ae3 a53f ae5c 753f f6d6 873e 1215 76bf
00000250: 9dae ab3e 8e76 343f 7db7 afbf b4c7 64bf
00000260: ddfb 80bf 5289 3fbf 0a30 923e 2bee 9a3f
00000270: abbc 81c0 6893 82c0 b331 623f aabf 083f
00000280: 03e0 c53f 32f4 9e3f e8af a4bf e025 dabf
00000290: 9602 cebd 1d0f 8b3d 0950 35bf a109 1fbf
000002a0: 765a bebf 0a22 33bf 8020 0dc0 4543 afbf
000002b0: 15c4 833e 943d 08bf 47a7 4dbe 7c8b 33bf
000002c0: 8dbe e5bf e40c c6bf 0784 4bbf c6e9 95bf
000002d0: 2901 813f 1ae5 783f 7ae0 313f 510e a23f
000002e0: c4b8 dcbf c431 26c0 4eb1 823f 0567 dc3e
000002f0: 545b 08c0 c570 3bc0 64a4 7dbf edbf 03bf
00000300: 3c23 a5bf 4751 83bf 4e86 ea3f 35a0 cd3f
00000310: 742f 8a3f 587c 463e 203b 503f 51f5 873d
00000320: c24e 293f f215 033f 660c 8dc0 af63 93c0
00000330: ee7c 09c0 f132 e5bf 4296 03bf 412b f8be
00000340: c4ff f13d 392e d8be 099f da3c 0a54 8f3e
00000350: 8829 1fc0 b75f 7ebf 8be8 a2bf 2205 81bf
00000360: de43 b73f aaf8 8e3f d28b e9bf 40ae eebf
00000370: 8c28 63bf afe8 26bf e4e1 2240 bc80 1340
00000380: 945e aa3f bd97 693f acf9 02c0 1a46 b8bf
00000390: 5ef1 e7bf d08b cfbf 04f9 f6bd 5db7 2d3f
000003a0: 8bf6 2dbf 2de7 2f3e 9a27 2540 0b7a 1740
000003b0: e504 833f 15a7 913f 15b8 13c0 41e4 debf
000003c0: b1c0 19c0 7dae 2fc0 5ed2 6cbd fc67 563f
000003d0: 85d9 713f 4f87 733f c52d e83d b26c 283f
000003e0: 2bf5 a3be b359 64bf 3eb7 c7bf f7fe 07c0
000003f0: 009b e63e 54ca a73f f0ba 9c3f 3ad6 903f
0.04058908 0.7065079 2.9295695 1.9573643 0.8057226 0.3916651 0.08521387 -0.20333387
-1.2111309 -2.2124076 -0.9267552 0.24544935 -1.302754 -1.4894748 -2.068384 -3.5494893
1.8309435 1.4081463 -0.3268467 0.150435 -0.17585848 -0.5542434 1.8177557 1.6934499
-2.3952086 -2.5349543 3.7735882 3.1117246 0.19593963 -0.24093784 -0.9791896 -1.0969992
-3.6325884 -3.6461434 0.27714399 0.324329 0.78399485 0.75909394 1.4345654 0.6309675
0.7998062 1.7693235 1.3360734 0.9766329 -2.46048 -2.377423 0.5846968 0.3944956
0.8634618 0.61143404 0.39064592 0.6614871 -0.039510097 -0.4596972 0.45738915 0.13298878
2.416204 2.2715642 1.1487155 1.1334481 -2.2951794 -1.6843491 -1.4154454 -0.9353567
0.56445116 1.0391351 -0.9743772 -1.860061 0.7383833 0.17266428 1.119618 1.3020558
0.27167746 0.7566238 -2.0623033 -1.837518 -0.83153015 -0.086424194 -1.5165018 -1.0591841
0.29815233 0.7632744 -1.3229457 -0.88480306 0.0114163095 -1.4051322 0.16933098 -0.71734715
3.9527495 3.4876542 1.050253 0.98516786 3.5262473 3.5560765 -0.5867899 -0.7649581
-1.3557658 -1.8131033 -3.165046 -2.4424398 -1.4351016 -0.40682778 3.7018025 3.320568
-0.9665253 -0.74021107 0.5972915 1.5961362 0.8479615 -0.38818884 -1.3955716 -1.2899691
-1.6166588 -0.5418986 -2.9010236 -3.079864 1.5429268 1.9907097 -1.2418033 -1.8948355
-1.3767211 -1.7220774 -0.9913296 -1.3949262 -2.262155 -2.2139897 1.2775897 0.8178619
1.2728174 2.396294 -2.9495718 -2.5050526 -0.21689941 0.15635672 -1.5191933 -1.4495448
-2.934245 -2.1407416 1.7707965 2.3299856 -2.4506898 -2.4883368 -1.7154783 -1.1030315
1.2960026 0.9584454 0.2653119 -0.961259 0.33531657 0.704934 -1.3727871 -0.8936722
-1.0076863 -0.7481891 0.28552276 1.2103933 -4.0542808 -4.080494 0.88357085 0.53417456
1.5458988 1.2418272 -1.2866182 -1.7042809 -0.10059087 0.06789992 -0.7082525 -0.6212407
-1.4871356 -0.69973814 -2.2051086 -1.3692404 0.25735536 -0.5321896 -0.20083342 -0.7013471
-1.7948776 -1.5472684 -0.7949833 -1.1711967 1.0078479 0.9722458 0.6948315 1.2660619
-1.7243886 -2.5967875 1.0210359 0.43047348 -2.1305742 -2.928758 -0.99078965 -0.5146473
-1.2901378 -1.0259179 1.8322237 1.6064516 1.0795732 0.19383371 0.8134022 0.06638587
0.661358 0.5120536 -4.4077635 -4.6059184 -2.14825 -1.7906171 -0.5140115 -0.484705
0.118163615 -0.42222765 0.026687162 0.27993804 -2.4869099 -0.993648 -1.2727216 -1.0079691
1.4317586 1.1169636 -1.8245795 -1.8646927 -0.88733745 -0.65198797 2.5450373 2.3047323
1.3310113 0.9124716 -2.0464888 -1.4396393 -1.8120534 -1.6214542 -0.12059215 0.67857915
-0.6795432 0.1717803 2.580542 2.366824 1.0235869 1.1379114 -2.3081105 -1.7413408
-2.402386 -2.745025 -0.05781781 0.8375242 0.94472533 0.9512834 0.11336855 0.65790856
-0.32022986 -0.8919937 -1.5602796 -2.1249368 0.4504013 1.3108621 1.2244549 1.1315377

net.0.linear.bias f4 [256]
00000000: d066 573d 6849 3c40 1345 a43f 615c ee3d
00000010: a53b 95bf 6f89 3fbf 4c1f 9cbf 02dc 26c0
00000020: 0fcc 553f 5565 9b3e 5cac 8b3d d587 e53f
00000030: 2851 0ac0 23a5 5f40 cec6 10be a585 5bbf
00000040: 37f1 0dc0 a113 5f3e 4ea8 7c3b 1eb8 a33f
00000050: 868c 9d3f 9ffd a03f 7e09 0ec0 b606 303f
00000060: fac3 1c3e 64bc 253f 1f40 94bf 15c0 ab3f
00000070: 0e70 f73f dd8e dd3f c569 28c0 75db a2bf
00000080: 1145 9a3f 9955 bdbf 4f20 923d 8a9a 823f
00000090: f246 863f 0fef f7bf 6f71 a6be 5d1b 13c0
000000a0: 1dd4 853d a5a9 99bf 860a a5bf e9f5 9ebf
000000b0: 667f 7640 fcde af3f 44f6 7640 70f2 c3bf
000000c0: b18e 22c0 6c1e 1cc0 45d9 45be 44c5 8f40
000000d0: 756e a9bf 0adc 9d3f 44e2 a2be 62a9 d63d
000000e0: e2d9 d0be 3476 1fc0 1f60 973f 3e79 76bf
000000f0: 5e34 d8bf 0d5c a4bf c1f9 91bf be9d 7e3f
00000100: 7631 ec3f 455c 2dc0 0b56 053e 0c65 87bf
00000110: 5118 43c0 43a8 d93f cd67 2ec0 b8da 01c0
00000120: 31d0 b73f cab5 5ebf be0a 053f 8f5c 8ebf
00000130: 2c6c cfbf 472e 983e 079c 88c0 2618 d03e
00000140: 6c87 513f 5613 b6bf f265 92be 91cf 6ebf
00000150: 2cec 12bf edf5 8cbf f5bf c9bf bc18 2ebe
00000160: f96e a6bf d630 7bbf b8dd eb3f 1306 cc3e
00000170: 9c83 f0bf 8291 1c3f 5dd5 3fc0 16df 2cbf
00000180: da96 d2bf e015 2540 d4b1 c6bd 5ebf 153f
00000190: 3616 963f c228 9bc0 ea1e c7bf 6c68 79bf
000001a0: 9359 163f fd9d a53e 42a6 f8bf a1a1 b1bf
000001b0: f418 ae3f 7729 c9bf a9b3 b3bf a9e9 1740
000001c0: 5de4 163f f0bb 99bf 08f0 f1bf ba0a 6a3f
000001d0: 8c77 b13c a6e4 2f40 a305 193f 9436 29c0
000001e0: d5af 3ec0 4efb 513d 4c9b 603f 0e81 3c3f
000001f0: 299c 47bf 76ae 2bc0 88e8 a53e e6b0 903b
00000200: 8834 1b3f 1ac5 3640 2d78 a43d c8b8 1dc0
00000210: 31e3 073f 67c5 f0bf 69e5 cf3d f690 93be
00000220: a5d9 d7bf 99b9 d6bf 917f 25be b200 c53f
00000230: d139 99bf d58b 53c0 46a0 e1bf 9e4e 4ac0
00000240: 6b88 8c3e 8c37 bcbf d461 2b3d d55f ef3f
00000250: 447b d0bf 7045 ab3f db83 95be d82f b3bd
00000260: e2b3 b2be 3ca1 bbbf 11fe 38bf 2d98 1640
00000270: 38cf 363f 7d31 fdbf b884 173f 1312 3abe
00000280: afaf 8bbe 8a63 e8bf a2a0 803f 5e32 5ebe
00000290: 40e0 4fbf 5411 ad3f d7c3 593f ca88 5d3f
000002a0: 9973 183f 20c9 c73f 1ba3 50be f47f 213f
000002b0: 4790 083f 0855 f0be f54d f0bf 630e 70bf
000002c0: ab5f 093f af40 80bf aed3 ac40 766f b83f
000002d0: b659 60bf e4fb 50bf 68f4 893e 7112 aabe
000002e0: 5be9 70be 8cf1 0740 acde 863e 7e84 8e3f
000002f0: 2eb8 a03e f640 c13f e8f8 1440 700c 663f
00000300: cb11 393f 79ec 0740 62ba aabf da3c 273e
00000310: 32a6 5cc0 52e4 8abf c9cd d93e 3844 d53f
00000320: 686d c3bb f6df 913e d875 10c0 b7ba f2bf
00000330: 835a 9f3f bb88 1040 3685 febf 1460 0abf
00000340: 0890 2bbf 7d3e 0740 8e47 4fbf 83b5 4a3e
00000350: 9682 88be d517 0040 832b 3d40 884c d8bf
00000360: c677 153e d8dd d7bf c6a2 023f d161 0140
00000370: d6c0 d8be f6e9 e63f 2854 3e40 da29 a43f
00000380: 6a6e c0bd 0f3b 0bbf 8776 7540 7a90 ba3f
00000390: f831 553f 9e4a cf3f beed a9bf cbdc 3bbf
000003a0: 203c a13f a913 d4bf e58f 2740 bb37 923f
000003b0: b22e 59bf ac0b c7bf 6458 93bf de9b bebd
000003c0: 6a51 a6bf 1c7b 11bf 1eca 1640 ca12 25bf
000003d0: 3557 f73f 4b96 31c0 017f 2ec0 387d 673f
000003e0: b222 9ebf 6091 903f 3250 d0bd c81d 83c0
000003f0: 5454 413f 2739 4ebf 71ac fb3f bb22 0dc0
0.052588284 2.9419804 1.283358 0.11638714 -1.1658827 -0.7481908 -1.2197051 -2.6071782
0.83514494 0.30350748 0.06819984 1.7932078 -2.1612034 3.4944541 -0.14138338 -0.857508
-2.2178476 0.21784832 0.0038552466 1.2790563 1.2308509 1.2577399 -2.2193294 0.6876024
0.15309134 0.64740586 -1.1582068 1.3417994 1.9331071 1.7309223 -2.6314557 -1.2723223
1.2052327 -1.4791747 0.071350686 1.0203412 1.0490401 -1.936983 -0.32508418 -2.2985451
0.06534598 -1.2004896 -1.2893836 -1.2418796 3.8515258 1.3739924 3.8587809 -1.5308361
-2.5399592 -2.4393568 -0.19321163 4.4928303 -1.3236834 1.2332776 -0.31813252 0.10481526
-0.4079123 -2.4915895 1.1826209 -0.9627875 -1.6890981 -1.2840592 -1.1404344 0.99459445
1.8452594 -2.7087567 0.13021104 -1.0577712 -3.0483592 1.7004474 -2.7250855 -2.0289745
1.436041 -0.8699614 0.51969516 -1.1121997 -1.6204886 0.29722807 -4.2690463 0.40643424
0.8184726 -1.4224651 -0.28593403 -0.9328547 -0.5739162 -1.101255 -1.5761706 -0.17001623
-1.3002616 -0.9812139 1.8427038 0.39848384 -1.8790164 0.6115953 -2.9973977 -0.675279
-1.6452286 2.5794601 -0.09701887 0.5849513 1.1725528 -4.8487253 -1.5556309 -0.9742496
0.5873043 0.32347098 -1.9425738 -1.387745 1.3601365 -1.5715779 -1.4039203 2.3736365
0.58942205 -1.2010479 -1.8901377 0.9142262 0.02166345 2.7483306 0.59774226 -2.6439562
-2.979482 0.051265053 0.87736964 0.7363442 -0.77972656 -2.6825233 0.3240397 0.004415619
0.6062703 2.8557801 0.08030734 -2.4644032 0.5308104 -1.8810242 0.101511784 -0.28821534
-1.6863295 -1.677539 -0.16161944 1.5390837 -1.1970769 -3.3054097 -1.7627037 -3.1610484
0.2744783 -1.4704452 0.041841343 1.8701121 -1.6287618 1.3380566 -0.2920216 -0.0874936
-0.34902865 -1.465858 -0.72262675 2.353038 0.7140994 -1.9780728 0.5918689 -0.18170957
-0.27282473 -1.8155377 1.0049021 -0.21698901 -0.81201553 1.3520913 0.8506445 0.8653685
0.5955139 1.5608253 -0.2037472 0.63085866 0.5334515 -0.46939874 -1.8773791 -0.9377195
0.536616 -1.001974 5.40084 1.4409015 -0.8763689 -0.81634355 0.2694428 -0.33217195
-0.23526518 2.1241179 0.2634176 1.1134183 0.31390518 1.509795 2.327692 0.8986273
0.72292775 2.1238081 -1.333813 0.16331807 -3.4476438 -1.0850928 0.42539814 1.6661444
-0.00596397 0.2849118 -2.2571926 -1.8963231 1.2449497 2.2583454 -1.9884403 -0.54052854
-0.6701665 2.113189 -0.8096856 0.19795804 -0.2666213 2.0014546 2.9557807 -1.6898355
0.14596471 -1.6864576 0.5102962 2.0215952 -0.42334622 1.8040149 2.9738865 1.2825272
-0.0939606 -0.5438699 3.8353593 1.4575341 0.8327937 1.6194646 -1.3275678 -0.7338378
1.2596474 -1.65685 2.6181576 1.1423258 -0.84836876 -1.5550437 -1.151135 -0.09307073
-1.2993596 -0.56828475 2.3560863 -0.64481795 1.9323488 -2.7747982 -2.7265017 0.90425444
-1.2354338 1.1294365 -0.10171546 -4.0973854 0.755193 -0.8055596 1.9662 -2.2052448

net.1.linear.weight f4 [256, 256]
00000000: 3d32 443f a0d6 02c0 0907 813f f67e dc3f
00000010: df93 a53f 5307 5d3f da13 8dbf f98a a8be
00000020: 21e4 adbf a202 14bf 8cfc 0ac0 ed8a 0cc0
00000030: be46 693f ac97 0bc0 94cd b03f d441 9a3f
00000040: 78ce 60bf 162f 0540 5ec9 46c0 2609 f53f
00000050: 5c06 15bf 7918 53bf a0b7 30c0 7c3a 9ebe
00000060: 5bad 90bd b7e8 5940 e416 a5be 9480 65bf
00000070: 0583 2e40 d073 1440 bc33 0c3f 3b60 923f
00000080: 57e7 863f 6ac9 5a3f 9765 92bf 969d 06c0
00000090: 5457 9ebf 9049 c5bf 3fb6 26bf 53e6 1d3f
000000a0: 0fcd 2c40 bd0c b0be 7e2c debf 98b6 e7bf
000000b0: c045 afbf 518a 9b3f 6ffc e7be b490 acbe
000000c0: b6b9 e53e eb1f 483e 9a46 febe b609 3f40
000000d0: 6c7d bd3e 5b4f 903d 6199 a5bf 2f25 8dc0
000000e0: 3e29 d73f 1e91 8fbf 39f9 0540 28b7 03be
000000f0: 4203 9e3e 4a6d a8bf 1e38 20c0 25da a03d
00000100: 571d 2840 4701 1c3f 34fb 9abf 52a6 05bf
00000110: 79de 91be 597b 4b3e c697 2e3e da52 49bf
00000120: cb15 d93f ab17 2e3f 1505 91be 06ce c3bf
00000130: 0f78 9bbe 4045 dc3f a1e3 e53f 5357 89c0
00000140: c183 d93f 4dd7 e03e c8c9 0440 74c9 1a3e
00000150: 5eda b4bf 5ee3 a13f ee2c 18c0 c1ba 2d3f
00000160: 3d2a 0d3e bc4d 74bf ee04 0a40 c65f 673f
00000170: 2005 2dbf f43c 9a3e 4d21 74bf 254c ae3f
00000180: 4faf debe 4848 09bf 9f25 383f e7a4 6bbf
00000190: efad f33d c6c7 d9bf c6bf c6bf 7090 a0be
000001a0: 364f 16c0 a29a 093f 8c7d 8c3f 83b3 893f
000001b0: 0a0c 1a3e 6e8b 43bf 13b8 4d3f 63a7 c93e
000001c0: 3d93 9fbe 41f5 2c3e 5831 1dbe 1249 dcbf
000001d0: 0854 d7bd b99b 84bf 771a 01bd df56 1bbf
000001e0: 70bb 8dbf aaf7 2e3e fc79 a6bf 8e2e 2abf
000001f0: 3410 1140 e698 9f3e 12ef 25bd add3 1640
00000200: 86a8 243f 0f04 c93f 750f a8bf 880b b73e
00000210: 11dc 7fbe 9ada 2140 db5f b1be 7600 1d40
00000220: 38ca cabf 88ae 593f 6783 debe 94b2 fabf
00000230: 1a54 3540 bab4 96bf 01ad 99be c0ba af3f
00000240: 6f0c 12bf 8756 483f 960a abbf caed 113f
00000250: acda 6ec0 0b09 cbbf 51fa b5bf c132 32bf
00000260: e979 5bbf 81af d33d 63de 5640 fcab a9bf
00000270: 029b ce3e f21a 1dbe 6915 26be 0c13 dcbf
00000280: fde3 aabe c411 0ec0 2e84 a93f 774a 7cbf
00000290: 2487 ffbd d712 343f 25a4 943f 7fdb d83f
000002a0: af98 293e c0ff 49be f328 8b3f bdea c83f
000002b0: f53f 1fbe 9ac9 babe 1cb6 6f40 07f9 c6bf
000002c0: 13df e93e f1b9 833f bb0b 01c0 fc69 2cc0
000002d0: 0ead e43f 0ec7 0ebf fe86 d2bf 9e01 6640
000002e0: 4b17 1f3e c0b7 1140 2431 0e40 d1e1 51c0
000002f0: 512d 94bf 39a0 29c0 32f0 f13f 38cf 543e
00000300: c305 2dc0 64ba 673e 5b76 0bc0 0dc7 773f
00000310: cd27 c63f acfd e03f f8f2 14c0 e34d 14bf
00000320: f1cc 14bf 92f9 6ac0 79b2 38bf 4798 2040
00000330: 7d5f 4040 5236 0940 445f 503f 2b1c 683f
00000340: b5c1 6340 8fe5 1ebf dcbf 9a3e c022 61c0
00000350: cb8a 4a3e b745 1340 316e 3ebf eb5f f0be
00000360: 8612 873e b6f1 803f d366 de3f 1b99 41bf
00000370: d3c4 1dc0 9e96 32c0 3ad5 01bf e4b4 083e
00000380: 90d1 f93f 8c3d 72bf a4de 62bf 1d5a 5fc0
00000390: e538 4fbf 6d20 a93f 4391 19c0 b7bc a03e
000003a0: 94db 4fbe c999 5c3d 759d f33f 050d d33f
000003b0: dd4d f73f c1dc 3ebf ae3c 333f 5ad7 b3bf
000003c0: d9aa d73f 854b c73f 50f6 26bf 5721 9d3f
000003d0: 3b8b 85bd ff3c 2640 779c 4c3e 917c 28c0
000003e0: 212c e0bf 4c5a a2bf 6876 f03f b308 f6bf
000003f0: 218d 9abe 2f7e 88bf c472 e13f 5569 16c0
0.7663916 -2.0443497 1.0080272 1.7226245 1.2935752 0.863393 -1.1021683 -0.32918528
-1.3585244 -0.5781652 -2.1716642 -2.1959794 0.9112357 -2.1811323 1.3812737 1.2051339
-0.87815046 2.080999 -3.1060405 1.9143417 -0.5821283 -0.8245922 -2.7612076 -0.30903995
-0.07064315 3.4048288 -0.32244027 -0.8964932 2.7267468 2.3195686 0.5476644 1.1435617
1.0539349 0.85463583 -1.1437253 -2.1033683 -1.23704 -1.5413074 -0.65121835 0.6167957
2.7000158 -0.3438472 -1.7357328 -1.8102598 -1.3693161 1.2151586 -0.4530978 -0.3370415
0.4486825 0.19543426 -0.4966324 2.9849677 0.37009752 0.07046386 -1.2937433 -4.410789
1.6809461 -1.1216161 2.0933363 -0.12862837 0.3086186 -1.3158352 -2.5034251 0.07854108
2.6267908 0.6093945 -1.2107911 -0.5220691 -0.28490046 0.19871272 0.17050084 -0.78642046
1.6959776 0.68004864 -0.2832419 -1.5297248 -0.30365035 1.7208633 1.7960092 -4.2919097
1.6993333 0.4391426 2.0748158 0.15115911 -1.412914 1.2647512 -2.3777423 0.6786309
0.13785644 -0.95431113 2.156551 0.90380514 -0.67585945 0.3012463 -0.9536331 1.3616987
-0.43493125 -0.5362592 0.71932405 -0.92048496 0.118984096 -1.7014091 -1.5527275 -0.31360197
-2.3485847 0.53751576 1.0975814 1.0757908 0.15043655 -0.7638463 0.80359 0.39385518
-0.3116702 0.16890432 -0.15350854 -1.7209799 -0.105140746 -1.0360023 -0.03151938 -0.6067943
-1.1072826 0.17086664 -1.3005977 -0.66477287 2.266614 0.3117134 -0.0405112 2.3566697
0.64319646 1.5704364 -1.3129717 0.35750985 -0.24986292 2.5289674 -0.34643444 2.4531531
-1.5842962 0.8503194 -0.43459627 -1.9585748 2.8332582 -1.1773903 -0.30014804 1.3728867
-0.5705022 0.7825703 -1.3362606 0.5700346 -3.7320967 -1.5862135 -1.4217016 -0.69608694
-0.85732895 0.10336209 3.3573234 -1.325561 0.40352637 -0.1534231 -0.16219105 -1.7193313
-0.33377066 -2.2198343 1.3243463 -0.98551124 -0.12476948 0.7034125 1.1612593 1.6941985
0.1656215 -0.19726467 1.0871872 1.5696636 -0.15551741 -0.36481935 3.74549 -1.5544747
0.45678005 1.029112 -2.016341 -2.6939688 1.7865312 -0.55772483 -1.6447446 3.5938487
0.1553623 2.2768402 2.2217493 -3.2794077 -1.157633 -2.6504042 1.8901427 0.20782173
-2.7034767 0.22629696 -2.1790988 0.967881 1.5480896 1.7577415 -2.3273296 -0.57931346
-0.58125216 -3.6714826 -0.7214733 2.5092943 3.0058281 2.1439404 0.81395364 0.9066798
3.558698 -0.6206903 0.30224502 -3.517746 0.19779508 2.30113 -0.7438689 -0.4694818
0.2638132 1.0073764 1.737513 -0.75624245 -2.4651382 -2.790443 -0.5071598 0.13350254
1.9517078 -0.94625163 -0.8862097 -3.489875 -0.8094619 1.321302 -2.399491 0.31393978
-0.20298606 0.0538576 1.9032427 1.6488348 1.9320637 -0.74555594 0.70014465 -1.4050095
1.6849014 1.5569922 -0.65219593 1.22758 -0.06520697 2.597473 0.19981562 -2.632603
-1.7513467 -1.2683806 1.8786135 -1.9221405 -0.30185798 -1.0663508 1.7613149 -2.350179

net.1.linear.bias f4 [256]
00000000: 6c79 dd3f 9b5b 0abf 5469 6bbf cd56 8a3f
00000010: 2b0a aebe e4d7 3bc0 e1aa 8dbe b4f6 763f
00000020: f465 d63f 92ae 5cbf 36e4 693c 6198 36bf
00000030: 27e4 0b3f 5264 2940 3c83 91bf 96ff c03e
00000040: b505 37bf ec12 b9bf b7f8 3bbf 00ad 683e
00000050: 2f6f 823d 3f64 9ebf b55d 8c3f fc89 b7bf
00000060: 8c7e 043f 9c56 583f e1bc e53f a096 36bf
00000070: 2d8c 2bbf 87dc 833f 6176 06c0 1e94 cd3f
00000080: f4b5 1d3f 49f5 0940 64e7 3d40 431b f3bf
00000090: 539b 4cbf f06f 263f 7762 313f bf3e 023f
000000a0: 83c8 94bf 85d4 643e 3d56 15c0 d6e1 afbf
000000b0: af29 2d3f f5a1 7ebe 2091 99bf 50d4 9cc0
000000c0: a816 433f 28c1 6fbf 52f8 3b3f f65d a7be
000000d0: 7502 2040 0572 8abf e256 d7bf 7720 ce3f
000000e0: aed9 e6bf c0bb 68bf a150 c93e 161e 25bf
000000f0: dd45 a9bf 7aa6 95be e7cb 5b3f d893 cd3f
00000100: 0ba4 6c3f b461 19be 17b9 a93e aced 14c0
00000110: e3bd ddbf 0370 d23f 4c99 91bf bde9 d1bf
00000120: 596d 85be 89b0 0fc0 8df3 e3bf 5a71 9cbf
00000130: 8b51 b83f b1ee ea3f b296 e33f 5a6e d6be
00000140: 8475 c03f fac1 c2bf e695 553f 59f1 6bbf
00000150: 02ba 0640 4e03 16be 54a3 6f3e 1d29 523f
00000160: d835 61c0 613f c8bf f3aa 3ebe 22ce 6dbf
00000170: 420b a4bf 4acc 82be 9f37 a3bf 9b38 adbf
00000180: 555d 833f ff2f bebf 7b75 f63f 5a0b 41bd
00000190: c24e 31c0 b47e 563f b5fa a93f f21e ae3f
000001a0: 893a 7440 eaf7 11c0 0d12 66bf 325b 6cbf
000001b0: c95c d13f cbef 323f 5bdc 5540 3c8a cabe
000001c0: 7e23 08bf 3f4e 28bf bc2a a7bf 0b11 0fbe
000001d0: bf73 27bf 0f0f 6ebf e811 0b3f cd59 1a3f
000001e0: 4824 d8bf 3c3e 6b3f b749 8bbe 2029 153f
000001f0: 4f42 d8bf 1867 28bc f13d 0b3f 7b1c 7f40
00000200: 3af7 063f d72c da3e c862 3c3f b0bd e8be
00000210: 5f0a acbf 8427 2f3f 6d19 9dbd 5ab1 0dc0
00000220: d5d4 d9be b7b6 d5bf cbeb e93e ec93 06bf
00000230: c9c6 853f e7f3 9a3f 27fb c43f d9af ddbf
00000240: e8b6 983f d4c4 b23f cae4 e03f 842f 3040
00000250: 5aff fabe 3ce2 a03e 7c0b e43f bf62 0f40
00000260: 0deb b43e edf8 93bf c110 63c0 5a4f 163e
00000270: b89b 85bf 1412 65bf 376f 7a3f 0698 313f
00000280: 46a9 1c3f 3a55 d23e 669e 0b40 389f 673f
00000290: 045b 803f dd1a 39c0 e51d 3d3e e39a f2bf
000002a0: 9390 863f 999a 3440 4012 0ebf aa3c e63f
000002b0: bc26 01bf 5823 2c40 c145 8140 2222 803f
000002c0: 6a1a 4fbf 5465 e7bd 6d66 023f 93b9 2340
000002d0: 619d e2bd a961 8dbf f9ae 19bf 711e 7fbd
000002e0: f5d6 44c0 fecb 88bf c7a9 113f 5751 55bf
000002f0: 2585 b83f 87b3 0140 4de4 a03e 1f47 33c0
00000300: 762c f63e 0228 26bf 1124 4e3f eca2 48bf
00000310: 29e4 ebbf 9f44 7440 998b 5cbf d9e6 4840
00000320: 2a24 f03f f7b2 ad3f a8e4 4e3f 3840 3040
00000330: ada8 12c0 4252 2cbf 6986 c4bf 42a2 e8bf
00000340: b163 0c40 78ff ab3d fb9f 8e3f d31d eb3f
00000350: 22a1 aa3f 0f2d 4440 1a40 ea3f 7bfa 06c0
00000360: 0c27 6f40 5ce4 f93e aa15 babf 7dbc d13e
00000370: 6b56 dc3f 59cf 84c0 0dad 373f 1010 433f
00000380: 2caf fa3f bf3a ba3e 94e9 02c0 0924 6a40
00000390: 7fa6 ce3e 7311 15bf 9d95 2dc0 6e79 1140
000003a0: f71f 82bd 8eb3 573f 6910 04bf 924f 92bf
000003b0: 3be1 6d3f 3dba bbbf b30b 0d3f 2bfb 903f
000003c0: efd4 8abe 1b14 5740 f6ca 6bbf 2eb1 8a3e
000003d0: f275 d2bf 8be4 27bf 2114 1dbf 84da 2040
000003e0: 00ff c6be d3ab b73f cacc 4fbf 769b ac3f
000003f0: 8ec6 c93f d890 ab3f 1ed8 913f c41b 37c0
1.730268 -0.5404603 -0.9195759 1.080774 -0.33992133 -2.935052 -0.27669433 0.9647019
1.6749864 -0.86203873 0.014275601 -0.7132626 0.5464501 2.646748 -1.1368175 0.37694997
-0.71493083 -1.44589 -0.73426384 0.22722244 0.06368863 -1.2374343 1.0966097 -1.4338984
0.51755595 0.84507155 1.7948266 -0.71323586 -0.67010766 1.0301675 -2.1009753 1.6060827
0.61605763 2.155596 2.967248 -1.8992695 -0.79924506 0.65014553 0.6929087 0.5087699
-1.1623691 0.22346695 -2.3333886 -1.3740795 0.6764173 -0.24866469 -1.1997414 -4.900917
0.76206446 -0.9365411 0.7342578 -0.32688874 2.50015 -1.0816046 -1.682339 1.6103657
-1.803518 -0.90911484 0.39319327 -0.6449903 -1.3224446 -0.29228574 0.85858005 1.6060743
0.9243781 -0.14978677 0.33149025 -2.3270063 -1.7323574 1.6440433 -1.1374907 -1.6399456
-0.26059988 -2.2451499 -1.7808701 -1.2222092 1.4399885 1.8354093 1.7780364 -0.41881067
1.5035863 -1.5215447 0.8343185 -0.9216514 2.105103 -0.14649698 0.23402148 0.82093984
-3.5189114 -1.5644342 -0.186199 -0.9289266 -1.2815936 -0.25546485 -1.2751349 -1.35329
1.0262858 -1.4858397 1.9254602 -0.047129966 -2.770432 0.83787084 1.3279635 1.3603194
3.8160727 -2.2807565 -0.89871293 -0.92326653 1.6356441 0.69897145 3.3415744 -0.3955859
-0.53179157 -0.65744394 -1.3059916 -0.13971345 -0.6541099 -0.9299173 0.543242 0.60293275
-1.6886072 0.9189184 -0.27204677 0.58265877 -1.6895236 -0.010278486 0.5439139 3.9861133
0.5272099 0.42612335 0.7358823 -0.4545722 -1.3440665 0.6841967 -0.07670865 -2.2139497
-0.4254519 -1.6696385 0.45687708 -0.5256946 1.045129 1.2105683 1.5389146 -1.731929
1.1930819 1.3966317 1.7569821 2.7529001 -0.49022943 0.31422603 1.7816005 2.240402
0.3533558 -1.1560341 -3.5478976 0.14678708 -1.0438147 -0.8948071 0.9782595 0.69372594
0.6119579 0.41080648 2.1815429 0.90477324 1.0027776 -2.8922646 0.18468435 -1.8953518
1.051287 2.821936 -0.554966 1.7987263 -0.5044973 2.6896572 4.039765 1.0010417
-0.8089968 -0.11298624 0.5093754 2.5582016 -0.11065174 -1.1045429 -0.6003261 -0.06228489
-3.07562 -1.0687253 0.56899685 -0.8332724 1.4415632 2.0265825 0.3142418 -2.801216
0.48080796 -0.649048 0.8052378 -0.783736 -1.8429004 3.8166883 -0.8615051 3.1390898
1.8761036 1.3570241 0.8081765 2.7539196 -2.2915452 -0.67313015 -1.5353519 -1.8174517
2.1935847 0.08398336 1.1142572 1.8368477 1.3330424 3.0652502 1.8300812 -2.109038
3.7367582 0.48807037 -1.4537861 0.40964118 1.7213873 -4.150311 0.7174843 0.76196384
1.9584708 0.36372945 -2.0455065 3.6584494 0.403614 -0.5822975 -2.7122567 2.2730365
-0.06353753 0.84258354 -0.5158754 -1.1430533 0.929218 -1.466621 0.55095977 1.132665
-0.2711558 3.3606021 -0.9210657 0.27088302 -1.6442244 -0.65583104 -0.6135884 2.5133371
-0.38866425 1.4349312 -0.8117186 1.3484943 1.5763719 1.3403578 1.1394079 -2.8610697

net.2.linear.weight f4 [256, 256]
00000000: dfd9 1dbf 3b5e 50be 667e 8bbf 024f 973e
00000010: 4a9f 553e d02d 5e3e d0a1 e3bf 134e 633e
00000020: 9503 2bbe 49c5 fa3f c97a e1bf 01e9 0940
00000030: 893c 913f 0a22 07be 21c3 6f3f 2824 e1be
00000040: 13c9 b3bf 2b64 883e d8d6 77bf 80dd 44be
00000050: 71af a7bf 0848 09c0 303f a4bf 4792 d63f
00000060: b72e 0fc0 3ec2 e83e d6d1 5c3e f2bc 863f
00000070: f56c 72bf 9cb3 28c0 2e58 19c0 ffaf 213f
00000080: 3dac 93bf d040 c7bf 93f9 acbf 7bf0 cabf
00000090: c093 f03f 75ec 263f e622 823f 1ae0 acbf
000000a0: b564 313f 3814 0c3d c0fd f83e c549 b2bf
000000b0: 0454 303f c7a7 323f 8568 c33e 373f f6ba
000000c0: 09ba dc3e 2b9e d3bf 6fcf 2e3f f903 6c3e
000000d0: 4063 9a3f 389e 68be 828f 103f 7d4a 69bf
000000e0: 931b 32bf b14f 0c40 e8a8 f8bf 0d1d a6bf
000000f0: e59b 28c0 7c4b ef3e 6479 2d3e c3e6 03bd
00000100: 6b32 9a3f f405 e93e 41da ca3f 2936 be3f
00000110: 4535 c83d 6cbe 55bf 9b60 86bf bf07 de3e
00000120: ff86 0bbf c82b 41bf 34fa 72bf 41e3 27c0
00000130: eaa3 1fbf 1fc7 e6bc 435f 6940 187f 1e3e
00000140: 89d7 a23f ac63 8d3f 52e9 9ebf 07e2 0440
00000150: 9a3e 99bf 8058 82bf 1432 13be 331b 0c3f
00000160: bdec 36c0 bb67 fa3f 41ce 42c0 9d7c b9bf
00000170: f015 f33f 9422 593e 8473 353f 46c1 54c0
00000180: 78fe a2bf 2c3f 14c0 d07e 773f d774 4c3f
00000190: c033 d93f 3516 5abf 6291 6abf 1a19 0b40
000001a0: c24e 3dbf e02c c0be 35e7 16c0 e2bb d43f
000001b0: cc10 0540 7668 933e 512f c0be d2f4 26c0
000001c0: b802 853e 79e0 f03e 7677 c03f d9a4 1b40
000001d0: 5113 863e 2fd3 cdbf ec9d 393f 1fc9 62bf
000001e0: f7f3 25bf 9189 11be b87f 9c3d 44a8 ed3e
000001f0: ffde 7a40 5d53 583f 4d0b 98bf 18f4 873e
00000200: 88af 433f 9b0c 543f 8961 803e 5e5b a43f
00000210: 631a 01c0 2cc8 7e3f 2386 99bf 16ae 123f
00000220: e0ba b3be 95d1 31c0 ab5f f6bf bfe6 a9bf
00000230: ce96 da3e 2a8f 8bc0 70c6 be3f 8f5a c53f
00000240: 88f4 0cc0 6e58 c73f aea7 873f e2ce 6cbf
00000250: 70f3 49c0 00f6 18c0 5dab b3bf 30f1 a2bf
00000260: 7419 ebbe 809e e13f 28c6 bdbf a9d2 1a40
00000270: adb0 1b40 1c31 c03f af6f 043f be6a a9bf
00000280: c235 873f 5984 473f d992 07c0 9b43 f23f
00000290: 4576 fcbe 1654 1440 bf1c e93f 6142 0740
000002a0: c2c9 3fbf 1052 a3bf 3d68 e53e fd2f a33e
000002b0: 5329 a4be 5e15 2f3f 722e c4be e81e d03f
000002c0: 8073 e93f 8338 91bf 286d 5cbf f4d1 fd3e
000002d0: 6382 93bf 44f4 fd3f 97eb 89bf 12f9 6dbf
000002e0: 7df9 e13e b2ca 4b3f 6fde b7bf 81b1 61be
000002f0: c0cf 13c0 b048 ee3d cb0b fdbd c193 d9be
00000300: b24f 03bf 150b 8abf 94b8 0ac0 d9cc a73e
00000310: 470d a1bf cecd 203f f5a1 84bf 03d2 6cbf
00000320: cf8b 2dbf 9c18 e13e 11c5 e4be c6da 1c40
00000330: 9c3b 8b3f 97e6 fcbf 6fce d73e db20 f2be
00000340: 5531 ae3e 0a32 d93f 576a 6dbf d0c4 3a40
00000350: 532a fcbe 56ed 023e a35e 913f 8372 85bf
00000360: c43d 893d 5a77 8b3f 3787 fd3f 8f33 25bd
00000370: 86f1 fcbe 0a83 0440 8160 7dbf 3f68 bf3e
00000380: 4c42 d7bd addc 00c0 4edc aebf 1c2e e43e
00000390: 9df8 dfbf 341c 03bf d4cc 34c0 5b8f 18be
000003a0: 4f11 413f 1f84 96bc 8c56 30c0 680d 1fc0
000003b0: e71e 6fbe c5ca c5be ba51 9f3f 5e8e 2fc0
000003c0: 0c90 a03e d5f7 a4bf e30e e8bf 5579 e9bf
000003d0: 2bbd 85be 0a7f 95bf 1619 1740 d5ed 85bf
000003e0: 2f5b b1bf b7a9 803e a697 24c0 860c e9bf
000003f0: 0db3 2d3e 4c5f 06c0 7a4c 64bf e833 07bf
-0.6166057 -0.20348446 -1.0897949 0.29552466 0.20861545 0.21697164 -1.7783756 0.22197752
-0.16700585 1.9591457 -1.7615596 2.1548464 1.1346599 -0.13196579 0.9365712 -0.43972898
-1.4045738 0.26638922 -0.968122 -0.1922512 -1.3100415 -2.1450214 -1.2831783 1.676339
-2.2372262 0.45460695 0.21564421 1.0526412 -0.94697505 -2.6359625 -2.396007 0.63159174
-1.1536938 -1.5566654 -1.3513664 -1.5854639 1.879509 0.65204555 1.01669 -1.350589
0.6929429 0.03419897 0.48631096 -1.3928763 0.688782 0.6978726 0.3816568 -0.001878715
0.43110684 -1.6532644 0.6828527 0.2304839 1.2061539 -0.22716606 0.56468976 -0.91129285
-0.69573325 2.192364 -1.9426546 -1.2977616 -2.634515 0.46737278 0.16940838 -0.032202493
1.2046636 0.45512354 1.5847856 1.4860278 0.09775785 -0.83493686 -1.0498232 0.43365285
-0.5450286 -0.7545743 -0.9491303 -2.6232455 -0.6235949 -0.02817112 3.6464393 0.1547817
1.2722026 1.1046042 -1.2414954 2.0762956 -1.197223 -1.0183258 -0.14374572 0.54729
-2.8581994 1.9562906 -3.0438387 -1.4491154 1.899107 0.21204597 0.7087939 -3.3242965
-1.2733908 -2.3163557 0.96677876 0.79865783 1.6968918 -0.85190135 -0.91628087 2.173407
-0.739483 -0.37534237 -2.3578618 1.6619837 2.0791502 0.28790635 -0.375361 -2.6086926
0.25978637 0.4704626 1.5036457 2.4319365 0.26186612 -1.6080073 0.72506595 -0.88588136
-0.64825386 -0.14212634 0.07641548 0.4641744 3.9198606 0.845022 -1.1878449 0.26553416
0.76439714 0.82831734 0.25074413 1.2840383 -2.0172355 0.9952419 -1.199406 0.57296884
-0.35103512 -2.7784169 -1.9247946 -1.3273543 0.4269318 -4.361226 1.4904308 1.5418261
-2.202425 1.5573862 1.0598047 -0.9250318 -3.1554832 -2.3900146 -1.4036671 -1.2729855
-0.45917857 1.7626495 -1.4826097 2.4191077 2.4326584 1.5014987 0.51732916 -1.32357
1.056328 0.7793632 -2.1183379 1.8926882 -0.49308982 2.3176322 1.8211898 2.1134264
-0.74917233 -1.2759418 0.4480609 0.3187255 -0.32062778 0.6839198 -0.38316685 1.6259432
1.8238373 -1.1345371 -0.8610406 0.49574244 -1.1524166 1.9840169 -1.0775021 -0.92958176
0.44135657 0.79606164 -1.4364756 -0.22040369 -2.309555 0.11634958 -0.12355765 -0.4249554
-0.5129348 -1.0784632 -2.1675158 0.32773474 -1.2582177 0.62814033 -1.0361925 -0.9250795
-0.67791456 0.43964088 -0.446816 2.4508529 1.0877566 -1.975787 0.42149684 -0.47290692
0.34022012 1.6968396 -0.92740387 2.9182625 -0.4925104 0.12785849 1.1357006 -1.0425571
0.06701234 1.0895798 1.9806889 -0.040332373 -0.49403018 2.070498 -0.9897538 0.3738422
-0.10510692 -2.013469 -1.3660982 0.4456643 -1.7497746 -0.5121491 -2.8250017 -0.14898436
0.75417036 -0.018373547 -2.7552824 -2.4851933 -0.23351632 -0.38631263 1.2446816 -2.7430644
0.313599 -1.2888132 -1.8129543 -1.8240153 -0.26120886 -1.1679394 2.3609061 -1.0463206
-1.3855952 0.25129482 -2.571756 -1.8206947 0.16962834 -2.0995665 -0.89179194 -0.5281358

net.2.linear.bias f4 [256]
00000000: 9ce7 a63f e719 d83f 3f4d 233f 9b18 ea3f
00000010: 6a9b 71bf 81c7 acbf 7a5b ec3f 3683 0d40
00000020: 6285 ff3d ae5b 4e3c db48 d4bf 84f0 32bf
00000030: eb6a 07c0 a57b e63f b367 0ac0 1f22 c83f
00000040: c3c7 b93e 8a18 81bf 070a b6bd 5587 a03f
00000050: 402a 33be c0e4 1ac0 3bc5 e3be 7b08 5f3f
00000060: 8b68 83bd 7c24 90bf c27a c43e 7b2c 0b40
00000070: 6eed aebf 803e b13f c638 88bf 9ea5 a8bf
00000080: 30dd 12bf 25fd 7d3f be44 993f 15f3 9a3f
00000090: a6db 35c0 610b 8e3f bb6a 2c3f 5b88 9abf
000000a0: 1be8 3cc0 0969 413f 65ab 1cbf 3eff 263f
000000b0: fa3c d6be 3832 1e3f 7b90 ad3f cd7d 863c
000000c0: 88e1 a8bf 0e48 7a3e cae1 4940 f988 2f40
000000d0: 20e5 a9be e219 86bd a963 8c3f 09f6 69be
000000e0: d4dc 5fbf 4ea3 243d 66d1 c53e 2984 9c3f
000000f0: 1a03 a63f ad59 bb3e e6cb f03f 0ad2 3bbf
00000100: 0e00 32c0 b0d9 4cc0 8c9b 6d3f 0398 ddbe
00000110: 96e4 2abf cbc0 3dbe a0f2 aabf 0326 16be
00000120: 84c2 0a3f 3aa0 003f 264b 02c0 15c5 f93e
00000130: 4443 3cbd d708 74bf 227d 4ac0 db14 9a3f
00000140: 5e4a 9bbf 5807 dabf 4cf7 b63e 69f9 dfbd
00000150: 95eb 6ebf 2271 383f 9a6c c23f e93b efbf
00000160: 4786 a03f d439 903f 2b28 b13f 8501 8b3f
00000170: 1cc8 3e40 ab47 aabf 279a 61bf 79b9 b8bf
00000180: 6497 1540 a43d fc3e 1a75 b0be 0804 5140
00000190: e4be ef3f fd9c 173f 62f2 0540 38cc ad3e
000001a0: 9399 91bd f1c5 553f a491 01c0 6cea 073f
000001b0: b798 8bbf 4a6e 82be c4e9 17c0 581c 5ebf
000001c0: d258 12c0 2a81 b5bf 87e0 6ec0 c1aa 14c0
000001d0: cd7e d3bf 81cb b7bf c312 20bd ec1a 10c0
000001e0: 1375 43bf f5fe 57bf e931 ec3f 47a7 fe3e
000001f0: 4d6d 223f b199 c43e 04e5 583f 449e 2140
00000200: 627c a23e d120 8dbf 1c3e 0c40 505e 183f
00000210: c2e2 c7bf f5c8 dd3f cc52 05c0 1ef8 2dc0
00000220: 47c0 983f a2d0 2b3e ec81 1b3f 149e 70c0
00000230: 5f69 5b3f d198 bcbe e1b8 c2be b830 683f
00000240: 7b97 f93d 5037 08c0 a2db 3dc0 ea47 3bbe
00000250: 394d f23f d7aa 2040 e7f6 b9bf 61c4 cd3f
00000260: 1ea0 2940 8c1e b93f a5d5 4b3f cc06 b93f
00000270: 1586 b4be f3c4 d7bf b26b b9bf a137 b93f
00000280: 3c0a 01be 3751 0c40 b8ea 163f 649d e23d
00000290: 6e41 bdbf 55e8 71bf 02f5 87bf ef44 f2be
000002a0: 28d1 383f 8701 e0be 97a7 ab3e 3517 26c0
000002b0: 43d4 bbbe 6478 25be 3804 d4be 2efc a23e
000002c0: c8bd 7b3f e923 7abf 657e 2740 0a28 283f
000002d0: e581 62c0 ea95 89bf a24c 3d3e 0313 b03f
000002e0: ca24 09c0 d07d 0fbf e95e 833f 41da 7cbf
000002f0: 8066 20c0 eb20 fb3f e351 5540 36fb 16c0
00000300: d887 01c0 dedf 80be ff46 233f e572 abbf
00000310: 51cb 093e 9463 f4bf 1406 5b40 1faf ed3e
00000320: c883 53bf 56d2 96be 572c c7bf 0de5 acbe
00000330: ba06 723e fda3 f13f 7298 9e3f a184 4a40
00000340: 8e32 023e fa80 0f3e 2cc2 f4bf bd29 e9bf
00000350: fd23 23c0 df23 2bbe 375e d03f fb56 cb3e
00000360: e91e bbbf 31c3 68bf 77dc 783f 44c8 9abf
00000370: f200 9ebf 1c24 453e 958a a6bf 99b3 a1bf
00000380: 46c6 973f 2359 9ebf f831 44bf 9388 7a3f
00000390: 9f84 febe fd3c a13f e848 253f bc65 0140
000003a0: f026 953e e8c4 62bf fe5d e83e 3c2e 153f
000003b0: f6fd b63c 6e1b bc3f 0375 013f 3057 c1be
000003c0: 7c52 553f 8e3c 0540 6038 1440 fc5c b63f
000003d0: 2519 09bf 74c7 fd3f 216c d4bf d5cf 423b
000003e0: 5bb3 97bf 6d1e 2dbf c2a2 dc3f afd6 e83e
000003f0: 4b75 7c3f aab5 0dc0 647c 3340 715c 0640
1.3039432 1.6882905 0.63789743 1.8288759 -0.9437777 -1.3498384 1.8465416 2.2111335
0.12476613 0.0125951 -1.6584734 -0.6989825 -2.1159008 1.8006483 -2.1625793 1.5635413
0.3628522 -1.0085614 -0.08888631 1.25413 -0.17496586 -2.4202118 -0.44486412 0.87122315
-0.06416424 -1.1261134 0.38374907 2.1745899 -1.3666208 1.3847198 -1.0642326 -1.3175542
-0.57368755 0.9921439 1.1974103 1.2105433 -2.8415313 1.1097223 0.6735036 -1.2072862
-2.9516666 0.75550896 -0.6119903 0.6523322 -0.41843396 0.6179538 1.3559717 0.016417408
-1.3193827 0.24441549 3.154406 2.7427351 -0.3318262 -0.065479055 1.0967914 -0.22847761
-0.8744633 0.040194802 0.3863632 1.2227832 1.2969697 0.36591855 1.8812225 -0.7336737
-2.7812533 -3.2007866 0.9281547 -0.43280038 -0.66755044 -0.18530576 -1.3355293 -0.14662938
0.5420306 0.50244486 -2.0358367 0.48783174 -0.045962587 -0.9532599 -3.1638875 1.2037615
-1.213207 -1.7033491 0.35735548 -0.10936243 -0.9332822 0.72047627 1.5189393 -1.8690158
1.2540978 1.1267648 1.3840383 1.0859839 2.9809637 -1.3303121 -0.8812584 -1.4431602
2.3373652 0.49265778 -0.3446434 3.265871 1.873013 0.5922392 2.0929189 0.3394487
-0.0710937 0.8350516 -2.0245142 0.53092074 -1.090598 -0.2547477 -2.373643 -0.86762
-2.2866712 -1.4180043 -3.732454 -2.322922 -1.6523072 -1.435898 -0.039080393 -2.2516432
-0.76350516 -0.8437341 1.8452731 0.49736997 0.6344803 0.38398507 0.8472445 2.5252848
0.31735522 -1.102564 2.1912909 0.5951891 -1.5616076 1.7326952 -2.0831785 -2.7182689
1.1933678 0.16778806 0.6074512 -3.7596483 0.8570766 -0.3683534 -0.38031676 0.9069934
0.12187096 -2.128376 -2.9665303 -0.18289152 1.8929816 2.5104272 -1.4528474 1.6075555
2.6503978 1.4462447 0.7962287 1.4455199 -0.35258546 -1.6856979 -1.4485991 1.4470102
-0.1260156 2.192457 0.589519 0.11065176 -1.4785593 -0.94495136 -1.0621645 -0.47318217
0.7219415 -0.43751165 0.33526298 -2.5951664 -0.3668538 -0.16159207 -0.4140947 0.31833023
0.9833646 -0.97711045 2.6170895 0.65686095 -3.5391781 -1.0748875 0.18486264 1.3755802
-2.1428704 -0.5605135 1.0263339 -0.9877053 -2.506256 1.9619421 3.333123 -2.3590827
-2.0239162 -0.25170797 0.63780206 -1.3394438 0.13456465 -1.9092889 3.422246 0.4642267
-0.8262296 -0.2945735 -1.5560406 -0.33768502 0.23635378 1.887817 1.2390273 3.164345
0.12714598 0.14014044 -1.9121757 -1.8215863 -2.5490716 -0.16712902 1.6278752 0.39714798
-1.4618808 -0.9092284 0.972114 -1.2092366 -1.2344038 0.19252056 -1.3011042 -1.2632934
1.1857383 -1.2370952 -0.76638746 0.97864646 -0.49710557 1.2596737 0.6456437 2.0218344
0.2913127 -0.88581705 0.4538421 0.58273673 0.022337895 1.4695871 0.5056917 -0.3776183
0.83328986 2.081821 2.3159409 1.4247127 -0.5355399 1.9826493 -1.6595498 0.0029725928
-1.185161 -0.6762455 1.723717 0.4547629 0.98616475 -2.214213 2.8044672 2.0993922

net.3.linear.weight f4 [256, 256]
00000000: 1787 10c0 b9ab c23f 0081 d73e 1dc1 0e3d
00000010: 87b2 ce3f 8f53 70bf 17ee 80bf 25d6 203f
00000020: 7e21 023f 3d4f 10bf 25c0 f03f b5fa bcbf
00000030: 507b 353f 865a 353f c79a b0bc 82de 5ac0
00000040: eb59 95be 8e09 c43f 4f08 debd 77a9 72bf
00000050: 195a 38bf d01d 8cbf 98ec c53f a1c3 62bf
00000060: 9d2c f63f 9db9 323f 37aa fbbf e0b6 443d
00000070: cc3d 79bf 7805 4e3f 742e b4be a05c 2f40
00000080: d044 9ebe 59b9 3fbf 4fd7 efbe 59e2 27c0
00000090: 68d7 b0bf 8473 ca3f 1ed2 293f 6f14 60be
000000a0: a82c c03f 093d a43e fa80 ffbf 1e7e 6a3f
000000b0: 0e65 cbbd 9745 febf 40fe f9bf 7270 d63f
000000c0: 6218 853f 790c e1bf d293 58bf cdf1 d4bf
000000d0: 944f 0dc0 ee1e 5dbe 24d6 f7be e901 553f
000000e0: d0ec 93c0 95c1 a53f 93a0 853f 3323 5fbe
000000f0: bdab 1dbf f4cf 303e c0ed 8f3e ab56 903f
00000100: eca7 ee3f 8cbb 8ebf 5167 9f3f 7fbf d2bc
00000110: 5898 a83f 5fc1 febf e822 bfbd c56a 20c0
00000120: 485e 1c3f 25ba 3bc0 abc8 ff3f d777 dabe
00000130: 54ee aabf a44f e3bf c893 8b3f dd4e c73e
00000140: 3b4f 633f 7fb3 a9bf d3d0 51bf f26f f2bf
00000150: 6f88 22bf 489c a3be 5c40 88bf cca9 2ac0
00000160: a2f1 783f 7328 b2be a3e2 583f fa2e a13f
00000170: 8558 e73f 9f5a c8be 570d 61be 18ef cfbe
00000180: 16e4 123f adca 1740 5bca dbbf 444b 9d3f
00000190: 6122 083f 823c f3be 9ceb 733f 23c7 ca3d
000001a0: 220a 8240 49b7 993f 0c4b 6ec0 3b31 a83f
000001b0: fe89 00c0 b666 8a3e 40d7 683b fd25 34bf
000001c0: 713c 2e40 ed9f 523f f99f 4fbf 3a36 073f
000001d0: 52c0 1640 1333 e93f 2484 4440 bbf2 0dc0
000001e0: adbd 923e ce9e 553f 6534 4e3f 4917 17be
000001f0: 26f7 28bd fbcf 1840 3500 cdbf 0056 9ebf
00000200: e15c 083f c12f 20bf d0de 883f 3faa 1a40
00000210: b81a 8dbf 3a96 c93f 80cc bdbf a392 2bbf
00000220: 8695 9cbf 248b f63f 4efe bd3d 952b 46be
00000230: 614c 883d b540 8f3f 2f05 9ebe b51b b83f
00000240: 2ee3 683f 4be2 873f 4bd5 813e 6559 fbbe
00000250: ae7e 5ebf 935b 1940 6303 fc3f 02ed 3540
00000260: dd0b a8bf 1d0b 78c0 b763 65bf eb7e 04bf
00000270: e083 d13f d431 823f 46ff 9d3d b972 953f
00000280: eb6c a23e 024f 2cc0 ade8 2dbf 709d 16bf
00000290: 0932 afbf 5199 9b3f f60c 083f 3102 433e
000002a0: ed4a c7bf 1a32 4f40 6355 6b3f 8626 653f
000002b0: 530a 133f d018 783f 0faa 993c 554a 12c0
000002c0: 1492 d43f b2f2 24c0 67bd 17c0 004a f4be
000002d0: f99f 8dbe 7ac5 03c0 a0cd 90bf dcaf e23f
000002e0: ca00 bebf e9e9 12bf 84cb 7cbf d758 b93f
000002f0: af09 9c3f fd34 44bf 89a8 2a3f 1b14 25c0
00000300: 0a17 d43e dd65 1fbe 3ca2 01c0 2fe5 ca3f
00000310: e06e 9ebe e99c f83d f9e2 edbf d090 a7bf
00000320: 7b0a c83e df7d 0cbf ec04 4340 ac77 02be
00000330: b728 92bf b57b 923f ee91 cd3f 8417 f9bf
00000340: f517 0b3f 0ef9 18bd 9491 7dbe d9a5 ae3e
00000350: a601 34be 64fb 3f3f 0141 ea3e d867 4e3f
00000360: d2fb a63f 9ff2 abbf c706 a23f 9cef 4abf
00000370: 6f8f 6b3f f4ce 303f 5aea 46bf 634d 20bf
00000380: f495 c93e 525e e53e 2b29 13c0 fec4 36be
00000390: 5cce e3bf 2312 1cbf 5552 debf bdf8 823f
000003a0: ecc4 243f 2e7c 01c0 1390 1d3f ab8d be3f
000003b0: c6ac 2fbf c63d 473f ec30 0fbf a802 52bf
000003c0: 545a 91bf da32 883f e633 ee3f f929 4ebf
000003d0: 9d89 f03e 9282 53bf 70d4 d3be 1e19 0c3f
000003e0: 0cb8 d5bd 3fc4 d13f b1aa 2e40 6ebb b13f
000003f0: b968 0340 16e0 02c0 404c 0bc0 dcc9 2b40
-2.2582452 1.5208656 0.42090607 0.034852136 1.6148232 -0.938775 -1.0072659 0.6282676
0.50832355 -0.5637091 1.8808638 -1.476401 0.70891285 0.7084125 -0.021558179 -3.4198308
-0.29170164 1.5315416 -0.108414285 -0.9478983 -0.7201248 -1.0946598 1.5462828 -0.88579756
1.9232365 0.69814473 -1.966132 0.048025966 -0.9735992 0.80477095 -0.3519169 2.7400284
-0.30911875 -0.74892193 -0.46843955 -2.6231902 -1.3815737 1.5816503 0.6633624 -0.21882795
1.5013628 0.32077816 -1.9961236 0.9159869 -0.09931384 -1.9864987 -1.9530716 1.6753066
1.0398066 -1.7581931 -0.84600556 -1.6636292 -2.207982 -0.2159383 -0.48405564 0.8320604
-4.622658 1.2949702 1.0439628 -0.21790771 -0.61590177 0.17266828 0.28111076 1.1276449
1.8644996 -1.1150985 1.2453405 -0.025726078 1.3171492 -1.9902762 -0.0933283 -2.5065167
0.6108136 -2.9332364 1.9983114 -0.42669556 -1.3353982 -1.7758679 1.0904474 0.38927355
0.8879277 -1.3257903 -0.81959265 -1.8940413 -0.6348943 -0.3195517 -1.0644641 -2.6666136
0.972437 -0.34796485 0.8472082 1.2592461 1.8073889 -0.39131638 -0.21977745 -0.40612102
0.5737928 2.3717453 -1.7171129 1.2288594 0.5317746 -0.475071 0.95281386 0.099012636
4.063737 1.2009059 -3.7233305 1.3140024 -2.0084224 0.27031487 0.003552869 -0.70370466
2.722439 0.8227528 -0.81103474 0.5281712 2.3554883 1.8218712 3.0705652 -2.21794
0.28660336 0.8344544 0.805487 -0.14754976 -0.041251324 2.3876941 -1.6015688 -1.2369995
0.5326672 -0.62572867 1.0692997 2.416641 -1.1023779 1.574897 -1.4828033 -0.67020625
-1.2233131 1.9261212 0.092770204 -0.19352563 0.06655193 1.1191622 -0.3086333 1.4383456
0.9097165 1.0615934 0.25358042 -0.4909164 -0.8691205 2.3962142 1.9688534 2.8425908
-1.312862 -3.8756783 -0.8960528 -0.5175616 1.636837 1.0171456 0.07714705 1.1675636
0.31723723 -2.6923223 -0.6793316 -0.5883398 -1.3687145 1.2156163 0.53144777 0.19043805
-1.556974 3.237433 0.91927165 0.8951191 0.5743763 0.9691286 0.018757848 -2.2857869
1.660708 -2.577313 -2.3709352 -0.47712708 -0.27661112 -2.058928 -1.1312752 1.7709918
-1.4843991 -0.5738817 -0.9874804 1.4480237 1.2190455 -0.76643354 0.66663414 -2.5793521
0.41423827 -0.15566202 -2.025527 1.5851191 -0.30943966 0.12139303 -1.8584892 -1.3091068
0.39070496 -0.54879564 3.0471754 -0.12740964 -1.1418675 1.1444002 1.6060159 -1.9460301
0.5433343 -0.037346892 -0.24762565 0.34110907 -0.17578754 0.74992967 0.4575272 0.80627203
1.30456 -1.3433417 1.2658318 -0.79271865 0.9201574 0.69065785 -0.7770134 -0.6261808
0.39372218 0.44798523 -2.2993877 -0.17848584 -1.7797351 -0.60965174 -1.7368876 1.0232159
0.6436298 -2.0232043 0.61547965 1.4886984 -0.68623006 0.77828634 -0.55934024 -0.82035303
-1.1355691 1.0640519 1.8609588 -0.80532795 0.4697999 -0.8262111 -0.41373014 0.54725826
-0.10435495 1.6388015 2.7291682 1.3885324 2.0532668 -2.0449271 -2.176529 2.6841955

net.3.linear.bias f4 [256]
00000000: 4fba 2e40 fa33 06c0 8aba 0e3e 1395 9ebf
00000010: 6605 e33e eec0 833e 12a5 adbe f8e3 e83f
00000020: 61d1 cb3e 7bc1 143f 7315 44bf b3b2 2f3e
00000030: 254b 563f 6c49 30bf d6e9 0440 5aa4 473d
00000040: f2b6 26c0 5d6a 4bbf 5a21 d93e ce80 9ebf
00000050: bbec 8cbf ce23 d9bf 2f24 8cbe 0d05 6a3f
00000060: a374 efbe 7379 7ebf 117e eb3e 61ac 2dbf
00000070: 7e37 d83f 29b6 23bf d28c 11bf 1f06 ec3e
00000080: dffb 8dbe e574 73bf aa4e 21bf d768 eebe
00000090: 6877 74bf ad71 7ebe 32f0 053e 05da a23f
000000a0: 5605 dbbe 56dd 4140 79d1 843e d491 c3bc
000000b0: 7d51 5fbe 5961 9dbf 0f11 a83e 066e 0e40
000000c0: a54a 8abe 2e2c fcbe 6835 d2bd 7a09 0dbf
000000d0: 3d5c 09be a9a0 bfbf 35ae 0e40 2513 afbf
000000e0: 7db1 2a3f 6e68 6bc0 e290 40bf 2c1d 0dc0
000000f0: e7d6 97bf 4d4e 823f 7c69 d8be 0a28 d6bf
00000100: 8a1e 8940 1746 7bbf 83c6 d4bf 57fe a9bc
00000110: 4fe2 2140 6b08 583d a97c 21be c570 8cbf
00000120: 3a29 0bc0 cfc3 20be 4377 863f 2af9 d3bf
00000130: f49f b9be 3cbb a03e 5926 0a40 c42a 98bf
00000140: a461 71bf 2447 843f 6320 c8bf 5373 56bf
00000150: 06e1 63bf 60bc 53bf c628 05bf 0d8a a23f
00000160: 5746 b5bf dc95 55bf e18c eebf bfdb 7d3c
00000170: 31e5 103f a9d0 7cbf 8eb5 87bf d7fc e5bf
00000180: fc04 1fc0 058b 71bf 1221 65c0 a8c9 b8bf
00000190: 9647 213f 0b56 813f 6b38 57be 4397 b83e
000001a0: bf6c 9ebf dbfa aebf 7d67 8f3e 998e 7a3d
000001b0: 487b 1dc0 446f 3040 4fbd 3140 bd3d 2440
000001c0: 06e2 cf3e e653 1440 7068 e9be 54a7 1bbd
000001d0: 310b f7be ed93 1d40 5464 463f d2af 44be
000001e0: 74c0 83be aa9f 5c3f 047d fa3f f458 8d3e
000001f0: f6cf dc3f 6aab bbbf dee6 743f e6d1 f6be
00000200: 1cfa 75be 5023 7b40 c16a 5b3e cb1b 603f
00000210: 107f 13c0 0790 b23e c152 903f 88d6 873f
00000220: b947 21c0 84c5 ecbe 7ab4 633f 617a 883f
00000230: babf fcbf 8ea5 d93f 4505 1a40 c720 a7bf
00000240: 2fcf c73e 7192 ea3e f147 b1bf f9e3 db3e
00000250: b53c 3c40 6c87 5040 4f28 91bf 264a 8f3f
00000260: 8d31 bd3e 00f4 54bf a9da a03f 97a0 84be
00000270: 1261 913e 6370 7fbf e265 08bf cc49 3ec0
00000280: 7dd6 28bf a258 05c0 0266 4240 ffa2 cbbf
00000290: 07c7 c83f 14c9 96bf eda4 6e3f a06d 0ec0
000002a0: a66a 1abf 6bc0 1d3e 8d8a 0d40 67ff 71c0
000002b0: ce14 80bd 4d36 123f 268f af3d d018 80bf
000002c0: 94d3 1cbf 6ecf 01c0 328b e43f 9053 113f
000002d0: 673a b43d d590 b7bf eb65 3ec0 7223 75be
000002e0: 42a2 c83f caf2 0cc0 7504 31bc a620 94bf
000002f0: a2f0 2440 0127 9cbd 7f46 c03e 2dfa 15bf
00000300: 1858 89bf 1dd3 6dbf e68f 57be a55f f4bf
00000310: 4f20 71bf f85c 3540 40a8 c4bf 7004 9fbf
00000320: 4f92 d8bf 7093 5c3f 0b50 3b3f 075d 48bf
00000330: d550 7abf 6c0f 11c0 c497 cc3c b1d8 51be
00000340: 997a 8b3f 7b3b ba3f 1b1c dcbe a63c 33c0
00000350: 925a 773f 1a98 a5bf 8f7f 593f 2412 8f3f
00000360: 638b e13f aa37 90bd e0bd a53f 5485 b9be
00000370: a283 6c3f 8a43 0fbe efd3 c33c 8cc4 91bf
00000380: c400 983f 41fb b4be 2e68 6f3f 8077 f9be
00000390: 4bad 3c40 3220 b9bf c592 73bf f785 623e
000003a0: 0986 a2bf 6f1d a23e c6ab 0ec0 9712 a63f
000003b0: e35d e93f 2bc6 df3f 7a88 323e f835 2abf
000003c0: 3196 903e 6ae9 7c3f 6fe7 d4bf 9faa 6bbf
000003d0: 1fba 21bf 4279 963e 938b 9c3f e9b2 653f
000003e0: de28 67bf ea5e 9f3f 60fb ddbf 9599 4a3f
000003f0: 6c81 b3bf 611a a03f 90bc 29bf 87ec 5c3f
2.7301214 -2.0969224 0.13938347 -1.2389244 0.44340056 0.2573313 -0.33915 1.819457
0.3980818 0.5810773 -0.7659523 0.17158012 0.8370841 -0.6886203 2.0767722 0.048740722
-2.604916 -0.7945917 0.42408258 -1.2383058 -1.1009744 -1.6964052 -0.27371356 0.91413957
-0.46768674 -0.99404067 0.4599462 -0.67841154 1.6891935 -0.6394983 -0.568555 0.4609842
-0.27731225 -0.9510024 -0.63010657 -0.4656436 -0.954947 -0.24848051 0.13079908 1.2722784
-0.42777508 3.0291343 0.25941065 -0.023873247 -0.21808429 -1.2295333 0.32825515 2.2254653
-0.27010074 -0.49252456 -0.10264093 -0.55092585 -0.13414092 -1.4970905 2.2293828 -1.3677717
0.66677076 -3.678249 -0.75221074 -2.2049055 -1.1862458 1.0180146 -0.42267978 -1.6730969
4.284978 -0.98153824 -1.6623081 -0.020751162 2.5294378 0.052742403 -0.1577021 -1.0971915
-2.1743913 -0.15699695 1.0505146 -1.6560414 -0.36254847 0.31392848 2.1585906 -1.1888051
-0.9428961 1.033421 -1.5634884 -0.8376972 -0.89015234 -0.8270931 -0.5201534 1.269838
-1.4162091 -0.8343179 -1.8636743 0.015494286 0.5659972 -0.9875589 -1.0602281 -1.7967786
-2.4846792 -0.9435275 -3.5801435 -1.4436541 0.62999856 1.0104383 -0.21017615 0.36052904
-1.2376937 -1.3670305 0.28008643 0.061171148 -2.4606495 2.756791 2.7771795 2.5662682
0.4060213 2.3176208 -0.45587492 -0.038001373 -0.48250726 2.4621537 0.7749684 -0.19207695
-0.25732768 0.8618113 1.9569402 0.27606928 1.7250965 -1.4661686 0.95664775 -0.48207015
-0.2402119 3.9240303 0.21427442 0.8754241 -2.3046303 0.3487551 1.1275254 1.0612345
-2.5200026 -0.46244442 0.8894726 1.0662347 -1.974601 1.7003648 2.4065716 -1.3056878
0.39025256 0.4581485 -1.385008 0.42947367 2.9412053 3.2582655 -1.1340426 1.1194503
0.36951867 -0.83184814 1.256673 -0.2590377 0.2839437 -0.99780864 -0.5328046 -2.9732542
-0.65952283 -2.0835347 3.037476 -1.5909117 1.5685738 -1.1780114 0.93220407 -2.225441
-0.6031898 0.15405433 2.2115815 -3.7812135 -0.06253968 0.57114106 0.08572225 -1.0007572
-0.6126034 -2.0282855 1.7854979 0.5676813 0.08800202 -1.4341074 -2.9749706 -0.23939303
1.5674517 -2.2023187 -0.010804285 -1.1572464 2.577187 -0.07624627 0.37553784 -0.5858486
-1.0730009 -0.9290026 -0.21050987 -1.9091688 -0.94189924 2.8337994 -1.5363846 -1.2423229
-1.691965 0.8616247 0.7316901 -0.7826695 -0.9777959 -2.2665663 0.024974711 -0.20492817
1.0896789 1.4549402 -0.42990193 -2.8005767 0.96622574 -1.2937043 0.84960264 1.1177411
1.7620662 -0.07041867 1.294857 -0.36234534 0.92388356 -0.13990608 0.023904769 -1.1388106
1.1875234 -0.35347942 0.9351834 -0.48723984 2.948077 -1.446295 -0.9514583 0.22121416
-1.2697154 0.3166308 -2.2292342 1.2974423 1.8231777 1.7482351 0.17434874 -0.664886
0.28239587 0.9879366 -1.6633128 -0.9205722 -0.63174623 0.29389387 1.2230095 0.8972612
-0.90296733 1.245084 -1.7342339 0.791406 -1.4023871 1.250805 -0.6630335 0.8629841
